Assets/AI/core_ai_model.onnx (onnx, 37924 bytes, 6 tensors)

fc1.weight f4 [128, 5]
00000000: 4538 bbbd 3a81 eebd b3ec f8bb cd15 63be
00000010: 83b1 aabd 4c71 dc3b e908 bc3d cba8 4fbc
00000020: 5e3d 69bd 3983 093c 145a 7abe 3878 b2be
00000030: 391a 9c3e 4803 9cbe 9ba3 c6be 843d 93bd
00000040: f4a9 413e 7c30 f1bd 2ce3 d3bd e011 5f3c
00000050: ba56 4e3e d204 64be fa43 213d 8b69 65bd
00000060: f215 183e 958a 9d3e 54f9 19be b5a0 f93a
00000070: 0d11 88bd 648a c6be cb9f 1f3e 2d4b ad3d
00000080: bd45 cabe a075 14be 18a6 373e 8b87 523d
00000090: 783e c6be 0f14 03bd 9b4a 683e 45c5 a5be
000000a0: 105f 873d 4bdd 0a3e 3b7c d0be b3da 4c3c
000000b0: b3bf cd3e fe3c d73e 719b a8bd 90d6 8f3e
000000c0: de57 743e 08f3 cb3e 7a26 3f3e af32 3abd
000000d0: cd50 543e ef53 ecbd 13d1 16be ac20 80be
000000e0: 7f16 97be 0370 9d3e 8b9c f43d 12ca e53e
000000f0: e4d9 d23e c6eb 6b3e e4f5 cebe ad30 a33e
00000100: ca13 b7be b9ba dd3e 1651 97be 1128 543d
00000110: 4200 4cbd 776a 54be 8ce6 19be 5f5b 1abd
00000120: dcf2 5abe 607c 403e 715d b8bd ffd4 5ebe
00000130: 394a 74bd 5af6 71be 6e9d 613e 540e 983e
00000140: 1d33 c2be 20c7 b43d 9e12 cfbe ac77 c2bd
00000150: bc9a 583e 23c2 543e f0c7 793e 1b23 9ebe
00000160: 03ad 1ebe f895 b7be d431 e0be 291e 77be
00000170: c5b0 16bc 7bfd c63e 60a5 9d3e 3eaf b5be
00000180: 80ac cb3c 7a4d 47be 44c3 463e 492f cabe
00000190: 7230 de3e 0dfd d23e e88e 863e 8ff8 b33e
000001a0: 0042 943c b4f7 d3bc c9a6 183e 69c9 93bd
000001b0: e59f cdbe 6be1 46be 7d7e 713e a83b a83d
000001c0: 3ebf 9a3e 841e 99bd 0bd0 ecbe a246 d7be
000001d0: 1075 00be 65ef 20be cf3d 713e 5647 0cbe
000001e0: 5e62 b23e b419 b23c 9458 b6be 33d2 aebc
000001f0: ad6e 7e3e 693d 503e 6427 9f3e c659 913e
00000200: 8aca 59be 444f 9b3e 6cd9 233d d626 65be
00000210: de89 9d3d ee7b c63e fe01 9bbe 1b3f c63b
00000220: 0b88 4c3d ef4c b4bc 5082 aabe 6d7e 0e3e
00000230: 4b6e 9abd 5d88 68bd f294 d63e b87c 09be
00000240: 3659 18be 56d5 6a3e 196f bd3e 115f cf3e
00000250: 1235 a0bd 53f4 5a3e 18b4 703e 78b8 e63e
00000260: 8af2 94be 91a9 9ebc 67a7 d53d 60a1 8b3d
00000270: 4a5c ad3d ced7 93be 38df 9dbd 6d75 c6be
00000280: 187b ae3e 3c14 cabe ddaa 453c b538 9dbe
00000290: 0b5d 86be abfa db3d a1a9 3a3e fcc8 323e
000002a0: 726c 91be 3143 8e3c 55f0 88be 1ca9 79be
000002b0: 9132 813e 1194 fcbd de68 b0be f498 b03d
000002c0: 652c ae3e ac56 633e 5b2b dbbe 7173 10bd
000002d0: 7cd2 92bb 471e bebe face 833e 8a70 cabd
000002e0: 7d05 bdbe 8939 313e b943 273d 9e0b 163b
000002f0: 4639 dbbe bde6 a6be 28ff a43d 4d11 bd3e
00000300: 7735 34be f1d0 a93e 4494 e43e 537d b2bd
00000310: fc91 83be bcbd 9a3d a213 393e 7243 46be
00000320: 2748 d1be f0d2 c13d 007a 883d 10a5 653e
00000330: efb6 9ebe 7e3a ba3e 05ee 68be 4bc6 7a3e
00000340: 5aa2 b4be 3da0 a8be bb15 12be 34fc 9fbe
00000350: 8128 d0bd 8a19 1e3c 942b e1be 6373 093e
00000360: b265 bbbe eb4d 3bbe a604 bb3d b342 67bd
00000370: 39c3 963d 7506 2f3d b1c8 bdbe 11d4 c9bd
00000380: 4c61 10be 6df1 bcbd d307 c9bd 636a 8f3e
00000390: 8836 c63e 0abd dd3d a90c ca3e bf15 99bd
000003a0: d366 ca3d 9c71 d4bd b9fb aa3e 1a4b 073a
000003b0: 0e62 40be 5d61 1dbe 0cdb efba 512a cc3e
000003c0: 33c0 f3bc 0582 a7be f85a 8cbd 6ddc 973e
000003d0: 9084 8abe afd7 4f3e 4ff1 703e 8516 24be
000003e0: e524 6d3e 62dd 2ebe dd37 b23e f31b cabe
000003f0: b925 92bd c836 b93e 31e2 9dbe 0381 ddbe
-0.09141592 -0.11645742 -0.007596576 -0.22176285 -0.08334639 0.006727373 0.09181387 -0.012674521
-0.05694329 0.008393102 -0.24448425 -0.34857345 0.30488756 -0.30471253 -0.38796696 -0.071894675
0.18912488 -0.11776826 -0.10346064 0.013615102 0.20150271 -0.22267464 0.039371468 -0.056008857
0.14852121 0.30769792 -0.15036517 0.0019045087 -0.06643877 -0.3877746 0.155883 0.08461604
-0.3950633 -0.14497995 0.17934453 0.051398795 -0.38719535 -0.03200155 0.2268471 -0.32377067
0.066099286 0.13560979 -0.4071978 0.012503314 0.40185317 0.4203872 -0.08232773 0.28093386
0.23861644 0.39833856 0.18667021 -0.045458492 0.20733948 -0.115394466 -0.14728193 -0.25024927
-0.2950935 0.3074952 0.11943921 0.4488073 0.41181862 0.23039159 -0.40421975 0.31873074
-0.35757285 0.4330652 -0.2955405 0.051796023 -0.049804933 -0.20743738 -0.15029353 -0.037684795
-0.21381706 0.18797445 -0.090021975 -0.21760939 -0.059641097 -0.23629132 0.22032711 0.29698431
-0.3792962 0.088270426 -0.4044389 -0.09495482 0.21152776 0.20777182 0.24392676 -0.30886158
-0.15495686 -0.35856605 -0.43788016 -0.24132599 -0.009197419 0.38865265 0.30790234 -0.35485262
0.024862528 -0.19463149 0.19410425 -0.394892 0.43396336 0.41208687 0.26280904 0.35150573
0.018097878 -0.02587495 0.14907373 -0.0721615 -0.40161052 -0.19421928 0.23583408 0.082145035
0.3022403 -0.074765235 -0.46252474 -0.42046076 -0.12544656 -0.15716322 0.23558734 -0.13699088
0.34840673 0.021740772 -0.35614455 -0.021340465 0.24846907 0.20335926 0.3108474 0.28388804
-0.21268669 0.30333912 0.04000227 -0.22378096 0.07692312 0.38766426 -0.30274957 0.006050003
0.04993443 -0.022009341 -0.33302546 0.13915415 -0.07540568 -0.05677067 0.4191051 -0.13426483
-0.14877781 0.22932944 0.36998823 0.40502217 -0.07822622 0.21382265 0.235062 0.45062613
-0.29091293 -0.019367965 0.1043232 0.06817889 0.08464868 -0.28875583 -0.07708591 -0.38761464
0.34078288 -0.39468563 0.012064663 -0.30707327 -0.2624286 0.107411705 0.18228771 0.17459482
-0.2840305 0.017366024 -0.2674586 -0.24380916 0.25233892 -0.12332929 -0.34455007 0.086229235
0.34018245 0.22201031 -0.42806515 -0.035266344 -0.004480658 -0.37132475 0.25743848 -0.098847464
-0.3691825 0.17307104 0.04083607 0.0022895108 -0.42817134 -0.32597914 0.0805648 0.36927262
-0.1759852 0.33167222 0.44644368 -0.0871531 -0.25697315 0.0755572 0.18073896 -0.19361666
-0.4087536 0.09464061 0.06663895 0.22426248 -0.30998942 0.3637275 -0.22747047 0.24489705
-0.35280114 -0.32934752 -0.14266102 -0.31247103 -0.101639755 0.009649644 -0.4397856 0.13422923
-0.36601025 -0.18291442 0.09131746 -0.056460094 0.073614545 0.042730767 -0.37067178 -0.098549016
-0.14099616 -0.09225736 -0.098159455 0.28010854 0.3871348 0.10827072 0.39462784 -0.07474851
0.098828934 -0.10373232 0.33395174 0.00051610323 -0.18787405 -0.15369172 -0.0018299534 0.39876035
-0.029754734 -0.32716385 -0.068532884 0.2966036 -0.27054262 0.2029712 0.23529552 -0.16024216
0.23158605 -0.17076638 0.34808245 -0.3947445 -0.07136101 0.36174607 -0.30836633 -0.4326249

fc1.bias f4 [128]
00000000: 08d7 d5be 1097 fabb 7a7f 20bd 4c07 233e
00000010: 7000 083e e69c ce3d 4c9e b63e ca5c de3c
00000020: d813 a63c bbf8 ddbe 1311 673e 805e d43e
00000030: 4f16 b2be 1976 933d 7514 593e ff50 c83e
00000040: 1e93 9fbe 7c6b 9e3e 1eaa b7be f0f3 7bbd
00000050: 5a2d a4bd 0615 bc3e 466f dcbd 6cf0 8b3e
00000060: a797 74bd e0bc 4a3b de31 82be 307b 5e3e
00000070: d50d 94be 9366 5a3e b11d 8e3e c067 b03e
00000080: 9d37 643d f8df d73d 4145 50be 3d1c 6c3e
00000090: 2351 a6be 9300 0dbe 361d e33e 3ff5 b3be
000000a0: 20cb 72bc 3d25 bbbe 94a8 ea3d 1cb5 7b3e
000000b0: b8c0 3bbe b680 49be 6137 c7be 375d 50be
000000c0: 1b4e d1be d164 b2be 0149 6f3e 290b bbbe
000000d0: ea70 0b3e b3b2 c3be d8e1 ab3e 5b3b da3b
000000e0: 0419 81be 7c36 19be 604d 0f3d 30df 82be
000000f0: 3c31 303e 79a3 8ebe 7e4f f7bc 4e97 8bbe
00000100: 7c1e e03e b61a 8a3e 6766 cabe 09b7 c93e
00000110: 3149 183e 7662 fabd 13df 5cbe 8b97 d8bd
00000120: 6488 223e be18 a8bd bccf 71bd 6dfe bdbe
00000130: bf34 4c3e eb75 e93d 59a4 84be ad48 c7be
00000140: 016b 06be f2a8 34be 70c0 3dbd 35fc bd3e
00000150: eaa2 be3e fbfd debe ddab 6f3d bc51 08be
00000160: 7593 b3be eb17 833e 0341 dabe 73dd 3fbd
00000170: d19a a73e 0b1e ae3e cc85 113e f08c 663e
00000180: 632d 97be fb3a ccbe 3b09 adbe 41c7 a93e
00000190: 1631 bcbe ba06 ce3e 7039 df3e 14fb 863e
000001a0: 10a6 f13d acaa b7be eb07 c3bd 908f 99be
000001b0: 9cc6 c3bd 826f c8be fea2 ce3e 710c c9bc
000001c0: 2ae0 4abe 85a9 843d fae0 723e 31c1 ccbe
000001d0: 6f3e 053e c89b 643e 58a9 78bd b6f7 9b3e
000001e0: 8030 23be f842 c03e 69c9 09bc 4e89 4a3e
000001f0: 5de6 27be 825f 8d3e 94d4 aebe 2183 84be
-0.41765618 -0.0076474026 -0.03918407 0.15920752 0.13281417 0.1008852 0.35667646 0.027143855
0.020273134 -0.4335383 0.22565107 0.41478348 -0.34782645 0.0720026 0.2119921 0.39124295
-0.3116693 0.3094138 -0.35871977 -0.061511934 -0.080164626 0.3673479 -0.10763411 0.27331865
-0.05971494 0.0030935332 -0.2542867 0.2172668 -0.28916803 0.21328191 0.27757028 0.34454155
0.0557171 0.105407655 -0.20338918 0.23057647 -0.32483777 -0.1376975 0.44358224 -0.35148045
-0.014818937 -0.36551848 0.11457935 0.24580806 -0.18335235 -0.19678006 -0.38909438 -0.20348059
-0.40879902 -0.34842542 0.23367693 -0.36531952 0.13617292 -0.38222274 0.33570743 0.0066599078
-0.25214398 -0.1496219 0.0349859 -0.25560904 0.17206281 -0.27859095 -0.030189272 -0.27263874
0.43773258 0.26973504 -0.39531252 0.39397457 0.1487167 -0.12225811 -0.21569471 -0.105757795
0.15872341 -0.08207844 -0.059036 -0.37108174 0.19941996 0.11399444 -0.25906637 -0.38922635
-0.13126756 -0.17642573 -0.0463261 0.3710648 0.3723367 -0.43553147 0.05851351 -0.13312429
-0.35073438 0.25604185 -0.42627725 -0.04684205 0.32735303 0.34007296 0.14211196 0.22514701
-0.29526815 -0.3988875 -0.33796105 0.3315983 -0.367562 0.40239507 0.4359851 0.26363432
0.11799252 -0.358724 -0.095229946 -0.29992342 -0.09559366 -0.39147574 0.40358728 -0.024542065
-0.19812074 0.06477646 0.23718634 -0.39991143 0.13012098 0.22325051 -0.060708374 0.30462426
-0.1593647 0.37551093 -0.008409836 0.1977894 -0.1639647 0.2761193 -0.3414656 -0.25881293

fc2.weight f4 [64, 128]
00000000: 4727 91bd 0f48 413d 6923 a7bd 27b3 b03d
00000010: 05b4 bf3c 470d a9ba e420 133d 11a1 203d
00000020: d137 623d 3a10 29bd e901 79bd 4810 4bbd
00000030: 32c9 6abd 4fc9 8b3d b3d4 39bd d2ad 0cbd
00000040: 32ca 723d f01c a9bc a988 00bc 9c3f 153d
00000050: a7bd 0c3d e77a b03d 4de7 af3d e6dc 4bb9
00000060: 085f 813c dd21 cb3d 88cd fbbc 5589 483c
00000070: 257d 113d 17b7 12bd 6dc6 213c b1a0 bd3d
00000080: 2450 98bd 3111 9bbc 73c6 15bd 3ca5 9c3d
00000090: 9110 41bd d074 28bd 34f6 05bc a226 413c
000000a0: 8027 76bd 00e5 283b 01c8 83bd ff9a 803d
000000b0: aa5f 30bd 37d0 9d3d f6d6 d03c 55fd 4e3d
000000c0: 9947 29bc 6e34 febc f536 ecbc e036 4abc
000000d0: bda8 9b3d 331f 56bd 20e5 3c3c d60e cd3d
000000e0: fa20 853d 7cbf c4bc 207c 4ebc 398d b43d
000000f0: 9738 efbc 15a1 2f3d b57a 80bb 7494 9fbc
00000100: 4387 b93d 2ea6 a8bc 39c2 80bd 50cd 713d
00000110: 1c2d 923b 0702 68bd 4cfb 453d bcbb 403d
00000120: 7d6c 3fbd 5aef 023d 7c7e b53d 7dd3 d13d
00000130: 63fe 833c 3481 973b 3f94 f03b a256 9c3d
00000140: 35e0 7fbd 9b24 03bc 8883 8a3c 4e4b 4c3d
00000150: 5161 a73c 86d5 02bd 309a bf3d 7ec8 923d
00000160: 19d5 733d bf57 8a3d f377 2fbd 8e82 833c
00000170: 3fd1 b63d 817e c33d da26 e63c 6091 66bb
00000180: 7fd8 1d3d 50ab 853d 5c37 12bd 3aa4 453d
00000190: fa6d 593d 28b2 ed3c 5444 4c3d 0b16 a83d
000001a0: d881 5c3c 5a42 7bbd 6a44 9e3d 794b 4d3d
000001b0: 8085 473b dc22 ad3d b8de e33c 3b08 1fbc
000001c0: a13e ae3c 2728 973d 1f2c 68bd db09 ac3d
000001d0: 4598 aa3c aca8 a33c f5aa a43d 58c3 e63c
000001e0: 5ab7 513d a6c9 c13b 222b a53d 2c80 a73d
000001f0: 2ff2 c03c f9a3 2dbd 8e9a 5bbd c879 31bc
00000200: 8a4b db3c b93f 6a3d 7f8d 473c a38b 1dbd
00000210: 3b72 c0bd 6f75 9b3d 2074 4dbd 5127 9e3d
00000220: f45b e53c 3752 9d3d 1044 9c3c 1ed2 24bd
00000230: 66ee 9c3d 074b 643d 0ca1 8f3d 8001 593d
00000240: 8020 e6ba d897 883d 0fea 9dbd f865 e63c
00000250: 43be b0bd d8e5 2c3d 258e 063d 9d01 8cbc
00000260: af71 abbd a81d 363d 162b b1ba 6dc3 83bc
00000270: e934 77bd 1fc5 afbc caff 1b3d db04 30bd
00000280: 8b5c 98bd 21f2 9f3d 9b59 933d 5b22 a3bd
00000290: 53e3 7fbb 0492 a23d 49f0 88bd d5a0 123c
000002a0: 4972 983d 7666 c63c 1e87 b2bc 1357 713d
000002b0: 4824 ef3c a1ab aebd eaf2 bbbc 2373 e03c
000002c0: e7c5 79bb 9dd7 c2bc 92b3 de3b e887 62bc
000002d0: 71d2 403d f0e7 643d b092 f4bb 8896 21bd
000002e0: e9bd 80bc cad8 44bd 222e e0bc 2ea5 423d
000002f0: 3a1b f7bc b2b7 5b3d 6504 89bd 00fb 57bc
00000300: c272 8cbd 9a61 45bd 39b4 a3bd 91ad 4c3d
00000310: e525 5e3d facf d53c 298b bd3c 6cf8 e3bb
00000320: 1ce7 c23c 5b2a e93c 6c23 b9ba 3e49 b0bb
00000330: a29b 08bd 9bd6 5b3d 9e14 a73d 8c83 fd3c
00000340: 5583 09bd b784 9f3d 8d27 9dbd 141d 2f3d
00000350: 0f44 703d 8469 debb 298b 77bd a0b5 bebd
00000360: 108b 7bbd d964 323d 9fc8 943d ca61 ef3b
00000370: 59e4 9d3d 08ea 9e3c deb8 86bd 1fc0 843d
00000380: 35f2 813c f31c 43bd 2893 83bd e97b 57bc
00000390: 1d00 12bd e4f0 49bd 976c 983d 3a34 733d
000003a0: 80fe f63a a91d a93d 3982 843d e1d1 cfbc
000003b0: 8991 a93d 23bd 2d3d a69a a7bd 33a4 573d
000003c0: 731a c23c ad2f 9c3d 66e0 f73c 66e9 b1bd
000003d0: 0ccf 1a3d 6b12 a73d 4921 5b3d f313 4bbd
000003e0: 716d 873d dbf2 65bd 43a3 553d 8972 923d
000003f0: fb4b 443d 3c41 3fbd 903d 983b b650 213d
-0.0708757 0.04718786 -0.08161051 0.086279206 0.02340127 -0.0012897634 0.03592004 0.039216105
0.055229012 -0.04127524 -0.060792837 -0.049576074 -0.05732078 0.06825506 -0.04536886 -0.034345455
0.05927486 -0.020643681 -0.007845082 0.036437616 0.034360554 0.08617192 0.08589039 -0.0001944188
0.015792385 0.09918568 -0.030737653 0.012239774 0.035519738 -0.03581914 0.009873969 0.09259165
-0.074371606 -0.018929096 -0.03656621 0.076487035 -0.04713494 -0.041127026 -0.008176375 0.011788996
-0.060096264 0.002577126 -0.06434632 0.06279563 -0.043059982 0.077057295 0.025493126 0.050534565
-0.010332012 -0.03103086 -0.0288348 -0.012342185 0.07600544 -0.052275848 0.011529237 0.10012595
0.065004304 -0.024017088 -0.012602836 0.088159986 -0.029201789 0.04287823 -0.003920878 -0.019479968
0.09059002 -0.020587053 -0.06287045 0.059033692 0.004460944 -0.05664256 0.04833536 0.047054037
-0.04673432 0.031966545 0.088620156 0.10245416 0.016112512 0.0046235565 0.007341891 0.076337114
-0.06246968 -0.008004333 0.016908422 0.049876504 0.020432146 -0.031941913 0.09355581 0.07167147
0.059529398 0.067550175 -0.042839002 0.016053464 0.08926629 0.09545613 0.028094698 -0.0035181865
0.038536545 0.06526816 -0.035697326 0.04825232 0.053083397 0.029015616 0.04986985 0.08207329
0.013458692 -0.061342575 0.07727893 0.050120804 0.0030444562 0.084539145 0.027816162 -0.009706552
0.021270098 0.07380705 -0.056682702 0.08400317 0.02082456 0.01997789 0.0804042 0.028169319
0.05120025 0.005913931 0.080648676 0.08178744 0.023552982 -0.042392705 -0.05361419 -0.010832258
0.026769418 0.057189677 0.012179731 -0.038463246 -0.09396788 0.07590758 -0.050159574 0.07722343
0.027997948 0.07681697 0.019075423 -0.040239446 0.076626584 0.055735614 0.07013139 0.052979946
-0.0017557293 0.06669587 -0.07710659 0.028124794 -0.086300395 0.042211384 0.032850403 -0.017090613
-0.08371293 0.044461876 -0.0013516869 -0.016084397 -0.060353193 -0.0214563 0.038085736 -0.04297338
-0.07439526 0.07809854 0.07194825 -0.07965537 -0.0039045408 0.079380065 -0.06686456 0.008949478
0.07443673 0.024218779 -0.021792945 0.05892093 0.029192105 -0.08528829 -0.022942979 0.027398651
-0.0038112344 -0.023784453 0.006796309 -0.013826348 0.047075693 0.055885255 -0.0074637756 -0.0394502
-0.015715556 -0.04805831 -0.027365748 0.04752081 -0.03016435 0.053641982 -0.06690291 -0.013182402
-0.06857826 -0.048188783 -0.07993359 0.049970213 0.054235358 0.026100148 0.023137646 -0.0069571044
0.023791842 0.02846258 -0.0014124936 -0.005379825 -0.033351548 0.05367146 0.08158229 0.030946516
-0.033572514 0.07788985 -0.07673559 0.04275234 0.058658656 -0.006787481 -0.060435448 -0.09311986
-0.061411917 0.043553207 0.07264828 0.0073053585 0.077095695 0.019398704 -0.06578229 0.06481957
0.015862564 -0.04763503 -0.06424552 -0.013152101 -0.03564464 -0.049301997 0.07442587 0.05937598
0.0018844157 0.0825761 0.064701505 -0.025368633 0.08279712 0.042416703 -0.08183794 0.052646827
0.023694253 0.07626281 0.030258369 -0.08687095 0.03779511 0.0815781 0.05349854 -0.049579572
0.06612671 -0.05613981 0.05215765 0.07150752 0.047924023 -0.04669307 0.0046460107 0.039383613

fc2.bias f4 [64]
00000000: f836 3abd f5e4 b4bc 8ac9 183d d279 81ba
00000010: b0db 8b3d 52af 9d3c d83a 023d 8fbd d73c
00000020: 3429 233d d8db f83c 1f2b 163c 1d5d 833c
00000030: e134 ac3d ba37 8d3c cef7 243d 6fe8 983d
00000040: 2ca1 903d 9f9c 7b3d 545b 9a3d 9c03 3abd
00000050: 600d 8f3c 94e7 91bc d85d 223c 2eb8 4ebd
00000060: 1bc8 af3d 96c2 543d 8292 1bbd 0db4 7e3c
00000070: 53b4 b73c 49ed 60bc 0111 55bc 9e25 4b3d
00000080: 668b 0bbd bad7 803c 837d 44bd 0847 3b3c
00000090: ed20 183c 80e3 47bc 86bf a9bd 47e7 14bc
000000a0: 9110 9cbd 36b7 59bd b301 7fbd c8bf b8bd
000000b0: 3794 653c 60c5 e73b b06f 4c3a 1dd1 84bd
000000c0: 9b34 803d 80b4 9bbd 3073 97bd 9dd7 9c3c
000000d0: a897 f6bc 449e 9fbc 902b c8bc 7f8e 943d
000000e0: 4018 28bd 559c 84bd ef8c 7f3d ab52 793d
000000f0: c006 91bd 0370 a6bd 6769 1cbd 0702 a93d
-0.04546258 -0.022081831 0.037301578 -0.0009878224 0.068290114 0.019248638 0.0317944 0.026335506
0.039834216 0.030378267 0.009165554 0.01603561 0.08408523 0.017238487 0.040275387 0.07466208
0.07061991 0.061428662 0.07536951 -0.0454136 0.017462432 -0.01781062 0.009910069 -0.050468616
0.08583089 0.051943384 -0.037981518 0.015545857 0.022424852 -0.013728448 -0.013004542 0.04959642
-0.034068488 0.015727866 -0.04797126 0.011430509 0.009285194 -0.012200236 -0.08288483 -0.009088344
-0.07620347 -0.05315324 -0.06225748 -0.09020954 0.014012388 0.0070730895 0.0007798625 -0.06485198
0.06260034 -0.07602787 -0.07395017 0.019145781 -0.030101612 -0.019484647 -0.024434835 0.072537415
-0.04103875 -0.064751305 0.062390264 0.060869854 -0.070813656 -0.08126833 -0.038186457 0.0825234

fc3.weight f4 [4, 64]
00000000: 8aef dcbd 1531 ea3d b932 893d dab1 dc3d
00000010: 4be3 4bbd 607e eb3d 23ee 3abd c6a8 653d
00000020: 533a a8bd 12fc cdbc 2fd1 febd 04e1 1bbd
00000030: dc9a ae3d 6a6b d4bd e18d f33d 5ed1 f6bd
00000040: bb50 1cbd 00f8 253d 7eb2 42bd 04ff cb3d
00000050: fdcf d23d e859 e8bd c6f1 813d 6905 2d3d
00000060: 98c9 e43d 9056 1ebd e152 923c 3b91 8cbd
00000070: d53d 2c3d 6f8c 5d3d b6f3 6abd c092 b23b
00000080: bbc8 c1bd fa95 db3d ae3a 6ebd b8be ff3d
00000090: 9a2a efbd 8020 00bc f8fd 0fbd d788 9d3d
000000a0: ad0e e9bd 08d0 6bbd 00bc 1fba bb39 e53d
000000b0: cdea f3bb 7d75 dabd 518d 603c 08aa 6b3d
000000c0: 44ae 8a3d 571e 263d f892 e03d 8f29 d8bc
000000d0: 36b6 a0bc 3088 2b3c b889 57bd ce2e cbbd
000000e0: 105c c33d 8cd3 c0bc 4d9d 923d 1125 153d
000000f0: 2e8c 573c d0fd ba3c 8c54 ccbd 60b1 a23c
00000100: 55c7 89bd 1113 483b 9663 9b3d dd4f 9aba
00000110: 8802 84bd 1068 68bc 9fde 063d ec3f c23d
00000120: d2cf 85bd c23b 0ebe fae7 5a3d dea2 dabd
00000130: 8e23 d0bd b9e9 903c 9b7c dcbd f437 b5bd
00000140: eef8 4b3d 51c1 4a3d 9bf6 babd b280 b63d
00000150: 775c 833d c8a6 813d 74af d03d 2315 cb3d
00000160: a628 cfbd be22 a23d 72f7 ebbd 2c0b f1bd
00000170: 6021 c9bc 1314 d93d a60a 3b3d e0ea c6bb
00000180: 814a a0bd e6a9 bd3d 3c05 7bbd 3108 9f3d
00000190: 0e41 d03c 40bd 223b 28c7 f8bd e11a b43c
000001a0: 1f0a aa3d d81f 76bd 0074 5939 1ca6 b13d
000001b0: 69ef eabd 5f82 04be 8cca 94bd 5e93 c73d
000001c0: 9cbd 0b3d 4ed3 03bd 7cb7 b93c 02b2 8abb
000001d0: 4272 8b3b 5825 dfbd c0f8 eabb a0c4 8f3d
000001e0: 107a 99bd f3b5 30bd ad55 de3d 53a3 84bc
000001f0: 942c 89bd 40f9 3dbc 40d3 a9bd 98a3 533d
00000200: b88d 5abd c86e ffbd 4827 cbbd 607c 01bc
00000210: 30d3 8d3c 8a96 a73d 9206 fdbd fac1 f0bd
00000220: 6e64 92bd 145c ffbd b874 16bd 8480 363d
00000230: 28d3 8cbd 6872 b83c d208 e6bd ec97 f9bd
00000240: acad 97bd 000e 663a 425e bb3d a4f7 cbbd
00000250: f88c 8abd 8ed4 bfbd 2efe bc3d 0cdf d13d
00000260: 4cee 4c3d 90d4 453d b8d5 abbd 5865 303d
00000270: 7836 87bd 525e a63d 40f4 9a3c 70ea 883d
00000280: d449 523d 20c8 6dbd 3c8c 0d3d 1897 88bc
00000290: 40f9 2fbd 9017 7c3d dcf2 d4bd e063 c83d
000002a0: 40bf 5a3d 5494 4a3d 7ce7 37bd f2f6 853d
000002b0: 845e 0bbd 226d cebd d0d3 653d 6060 af3b
000002c0: 7091 a4bd 4a5d 84bd ba8d d03d a61c be3d
000002d0: 88da 633d 640b 0ebd ae7e db3d a6bc fabd
000002e0: a0c6 54bc 10ae e1bd 7020 f5bc 0c65 4e3d
000002f0: 6e5d a53d d4d1 c9bd 7aff b8bd a4aa 1dbd
00000300: ca70 9cbc aeeb 18bd 3b88 c83c 147a eebd
00000310: 130f cebd ba22 1e3d 3f1f 2e3d 84eb 933d
00000320: c03d bbbd 883c a43d 6f19 4cbd 01e2 983d
00000330: 7f2b ed3c 1627 9abd 803a e1bd 8c3b 633d
00000340: ab44 5f3c 2017 89bb 6174 e73d 2625 d43d
00000350: 76c3 013e 0454 cd3d b020 603d 7d4c 983d
00000360: b4ee 323d ca01 c23d 48cd 5d3c 405d eb3b
00000370: eb59 70bd 0865 fb39 71bc 663d 32e8 95bd
00000380: e77f ab3d 8305 eb3d 97c9 223d ec57 a8bd
00000390: abab 42bd e608 a13d 8c1c 34bd cba1 06bd
000003a0: 714e ddbd f4fb 1b3d 34ec 4f3d aac6 3ebd
000003b0: 3136 943d 909f 5f3d e76a 0abd c037 123c
000003c0: 7e63 febd 40af 7f3d 82ab debd bef0 fc3d
000003d0: a04b f63c a410 1e3d 6016 b63b 7aed e73d
000003e0: 3e28 81bd 4ae7 04bd b26e 30bd 747d 80bd
000003f0: e04e 913d 20bc cbbd b2f8 bdbd 1460 2cbd
-0.10787876 0.11435143 0.06699128 0.1077611 -0.04977731 0.114987135 -0.04563726 0.056069158
-0.082142495 -0.02514461 -0.12442242 -0.03805639 0.08525631 -0.1037205 0.11892296 -0.12051652
-0.038162928 0.040519714 -0.047533505 0.0996075 0.10293577 -0.11345273 0.06344943 0.042241488
0.111712635 -0.03865677 0.017861785 -0.06863638 0.042051155 0.054089006 -0.057361327 0.005449623
-0.094621144 0.10721965 -0.05816143 0.124875486 -0.116780475 -0.007820249 -0.035154313 0.07692116
-0.11379752 -0.05757144 -0.0006093383 0.11192652 -0.007443762 -0.1066694 0.013705567 0.0575352
0.0677152 0.040556278 0.10965532 -0.026387004 -0.019618135 0.010469481 -0.052621573 -0.09921037
0.09539044 -0.023538373 0.07158909 0.036412302 0.01315598 0.022826105 -0.099770635 0.01985997
-0.06727473 0.0030528943 0.07587354 -0.0011773069 -0.06445795 -0.014184967 0.03292715 0.094848484
-0.06533779 -0.13889983 0.053443886 -0.10675596 -0.101630315 0.017689573 -0.10765954 -0.08848563
0.049797945 0.049500767 -0.091290675 0.089112654 0.06414121 0.06330639 0.10189715 0.09916141
-0.10115175 0.07916783 -0.11521806 -0.11769709 -0.024552047 0.10599532 0.045664452 -0.0060704798
-0.078267105 0.09260921 -0.06128429 0.07765234 0.025421645 0.002483204 -0.12147361 0.021985473
0.08302712 -0.060088962 0.00020737946 0.08674261 -0.11471445 -0.12940358 -0.07265195 0.09744905
0.034116372 -0.032183938 0.0226705 -0.004232646 0.004255564 -0.10895795 -0.0071707666 0.07019925
-0.07493985 -0.04314227 0.10856185 -0.01619116 -0.06697956 -0.01159507 -0.08292246 0.051669687
-0.05335781 -0.12472302 -0.09919602 -0.0079031885 0.017312616 0.0818301 -0.12354769 -0.11755748
-0.07148062 -0.124687344 -0.036732405 0.044556156 -0.06876212 0.02251549 -0.11232151 -0.1218718
-0.07406172 0.000877589 0.091488376 -0.09959343 -0.06765169 -0.093667135 0.092281684 0.10247621
0.050031945 0.04829842 -0.08390373 0.0430654 -0.06602186 0.08123459 0.018915296 0.066853404
0.05133994 -0.058052182 0.034557566 -0.01667361 -0.042962313 0.06154591 -0.10397884 0.09784675
0.053405046 0.049457863 -0.044898495 0.06541242 -0.034025684 -0.10079409 0.056110203 0.005352065
-0.080355525 -0.06463106 0.10183282 0.09282808 0.05562833 -0.03467883 0.107175216 -0.12243013
-0.012986809 -0.11019528 -0.029922694 0.050389335 0.08074461 -0.09854475 -0.09033103 -0.038492814
-0.01909675 -0.037334137 0.024479022 -0.11644378 -0.10061469 0.038607337 0.042510267 0.072226554
-0.09142637 0.08019358 -0.049828943 0.07464982 0.028951405 -0.07526986 -0.10997486 0.05547671
0.013627212 -0.004183665 0.113014944 0.10358648 0.12672219 0.1002579 0.054718673 0.07436464
0.043684676 0.094729975 0.013537712 0.007182747 -0.058679502 0.00047949725 0.056332055 -0.07319678
0.08374005 0.11475661 0.039743032 -0.08219895 -0.047526997 0.07863025 -0.043972537 -0.03286914
-0.10805977 0.038082078 0.05076237 -0.04657618 0.07236899 0.05459553 -0.033793356 0.008924425
-0.124213204 0.06242299 -0.10872556 0.123506054 0.030065358 0.03859009 0.0055568665 0.11324592
-0.06306504 -0.032447137 -0.043074317 -0.06273928 0.07095122 -0.09947991 -0.092759505 -0.042083815

fc3.bias f4 [4]
00000000: 6168 c3bd 1116 433d 34ff d93d 00e4 c23d
-0.09541393 0.047628466 0.10644379 0.09516144
