Assets/AI/weather_ai_model.onnx (onnx, 83492 bytes, 5 tensors)

fc.weight f4 [9, 64]
00000000: 9dda aa3e 5696 92bd 3078 b8bc a76a bf3e
00000010: 8b31 11bf 9de8 a6be b75d 6ebd bda8 dd3c
00000020: 0b09 a53e 2a03 663e 2ae8 863d 5ddd dc3d
00000030: 04eb 72be cc83 adbd d440 a3bd cc78 6fbe
00000040: 21aa 19be 48e6 19bd 883d 5fbe 5f80 893e
00000050: ffc6 ecbc a587 0d3e ab54 f13e 6ae4 963e
00000060: c3a5 9f3e 985d c0be 0ab3 a73e 8188 843e
00000070: faa0 82be 0ba3 c2be 8928 a2bc 8920 9abb
00000080: 5059 153f 180d 44bf 5862 313e 3997 dbbe
00000090: db58 103e bec6 123e 8d41 213f a266 c3be
000000a0: 100c abbc c2f0 d43c 59b0 80be eea3 a4be
000000b0: 1746 013e 1871 c43d b770 a2be 9cd9 76be
000000c0: fa9d 49be 9371 f33d 83f3 a3bd 8537 6dbe
000000d0: f069 0a3e 4816 643e 0774 4ebe 8463 8c3e
000000e0: e1bb 5b3e e965 893e 547f 4d3d afcd 883e
000000f0: f908 823d 65d8 9dbe 8abe abbd 0933 bf3d
00000100: 1227 26be e01e 2e3e c605 e53d c389 97be
00000110: 2078 4b3f 581e efbd bf90 28be 781d ca3c
00000120: cf4f 993e 621f 9e3d 3e9f 39bd a997 313d
00000130: ce69 6a3e 70ec e13d 5ae1 543e 97ca dfbd
00000140: 0670 763c 83a8 e5bd 1c01 5e3e bde9 9ebe
00000150: 9ffa d2be 2b19 523e 8e38 efbe 36b7 a93e
00000160: 138e 043d 537c 9abd 6b37 d2bd be58 283e
00000170: c617 81be 70ff e83c 7a40 4e3e 7abc 70be
00000180: 452f c43d a653 3cbd 2928 0c3f bfe4 de3e
00000190: d16f 7bbe 7f1a e23d ad18 b13d 506f 943e
000001a0: ceee 03be d97d 8bbe 78f4 003f e603 cabe
000001b0: 5a51 02bd b0c6 9ebd 8e93 773e b163 9b3d
000001c0: 87d7 763e da30 ec3d f5ff aabd ae8e b93c
000001d0: e129 543e 7b45 8dbe 570d 26bf 2f6b 913d
000001e0: 0a24 483e 6435 1a3e 8283 f03d e5ae c7be
000001f0: 35f9 0bbe 3dab 31be 5c2b 863d 1c03 793d
00000200: 43d2 123f 73d8 a5be a31c 2abf 91e4 a73e
00000210: 49b3 8dbd 0453 fe3d 6924 323e 2729 e23d
00000220: f877 2c3e 5d86 53be da50 36be a778 c73d
00000230: 052a 0bbf c5e0 863c ef76 1a3e 91fc 8ebd
00000240: a609 943e e476 49be 38ae 443e 85c5 02bd
00000250: 24c3 f3bd 85aa c13d 2931 78be b381 8fbe
00000260: 3ca7 05be f7e3 aa3e 87c7 723e da0c ddbe
00000270: 08b7 913d 312a 43be d460 20bf 8c3d cfbe
00000280: 177d 0dbe 1079 0f3f b6e9 2fbd 36e0 823e
00000290: 18ad e03e 86bc ac3b 0c8a a8be d897 bd3e
000002a0: 5527 713f 8caa b63e 8680 77be 18eb c43e
000002b0: 5b79 db3e 999b 823e 68b3 013f da24 813e
000002c0: 178c 7cbe 9d8c 443e a930 6b3e 5fb7 99bd
000002d0: 0247 943d 59f1 8fbe 421a 2c3e bcce fdbe
000002e0: e1cf 32bf d930 16be 2f85 f9be 15d8 d0bd
000002f0: 6f2e 82bd f64f 493f 5eb0 e7be 4463 cbbd
00000300: efad 003e ad18 d6be 93d6 1d3e d572 83bc
00000310: 654b 4b3f 9377 433f 9ab3 c9bd da17 55be
00000320: 1ea0 033f 534b 5b3d fba9 07be 3d3e e1bd
00000330: 2cd5 e53d 88ff 683f b7c8 8bbe 92d5 2b3e
00000340: 3e8a d9be 7aab fabd 0293 753e b028 c03d
00000350: 6561 c5bd fae2 6abe 673a ccbe 22db acbe
00000360: 1761 663e 893a 14bf 1822 3d3e acbd 1ebf
00000370: a160 863f d5e5 8e3c 24fc e13e bc8b 273f
00000380: adb8 6bbd 46ce 80be bf0a f63d b61e a4be
00000390: ff20 86bd 0267 2dbf 5e4f 3e3f 7685 833e
000003a0: b9a1 0e3e f890 7e3e 8ff3 243f a721 393f
000003b0: 3261 e53c 89da 4bbf 90c5 02bf bf3a 04bd
000003c0: 6f21 c2be 5506 8f3c fce1 02be de82 c8bd
000003d0: 1d3a e83d 60c8 863e 13e3 cabe d8af 39bf
000003e0: 1287 113e 35fa 473e f17f 24bf dfb0 fcbe
000003f0: d928 2e3e cd15 cebc ed00 c4bd 74ad 46bf
0.33369914 -0.071575806 -0.022518247 0.37386057 -0.5671622 -0.32599345 -0.058194842 0.027058
0.32233462 0.22462144 0.065872505 0.10784409 -0.23722464 -0.08472404 -0.07971349 -0.23385924
-0.15006305 -0.03757313 -0.21800816 0.26855752 -0.028903482 0.13821276 0.4713491 0.2947114
0.31181154 -0.37571406 0.32753783 0.25885394 -0.2551344 -0.38015017 -0.01979472 -0.0047035855
0.58339405 -0.7658248 0.17322671 -0.4288881 0.14096396 0.14333627 0.6299065 -0.3816424
-0.020879775 0.025993709 -0.25134543 -0.32156318 0.12624393 0.095918834 -0.3172662 -0.24106449
-0.1968917 0.11886897 -0.080054305 -0.2316571 0.13516974 0.22274125 -0.20161448 0.27419674
0.21458389 0.26835564 0.050170258 0.26719424 0.06349368 -0.30829158 -0.08385952 0.09335906
-0.16225842 0.17003965 0.11182742 -0.2959729 0.7948017 -0.116757095 -0.16461466 0.024672255
0.29943702 0.077208295 -0.04531788 0.043357525 0.22891924 0.11031425 0.2078909 -0.10927313
0.015041357 -0.11213782 0.2168011 -0.31037703 -0.41206834 0.20517413 -0.46722835 0.3314759
0.032362055 -0.07543244 -0.102644764 0.16440102 -0.2521345 0.028442115 0.20141783 -0.23509398
0.095793284 -0.04597821 0.5474878 0.43533894 -0.24554373 0.1104021 0.08647285 0.28991175
-0.12884066 -0.27244452 0.5037303 -0.394561 -0.031815864 -0.077527404 0.24177381 0.07587374
0.24105655 0.11532755 -0.08349601 0.022651043 0.207191 -0.27592072 -0.64864105 0.07100522
0.19544998 0.1505943 0.11743833 -0.3900062 -0.13669284 -0.17350478 0.06551239 0.06079398
0.57352084 -0.323917 -0.66449946 0.3279157 -0.069189616 0.12418178 0.17396702 0.110430054
0.1684264 -0.20656724 -0.1780428 0.097398095 -0.5436099 0.0164646 0.15084432 -0.06981767
0.2891361 -0.1967426 0.19207084 -0.03192665 -0.119024545 0.09456352 -0.24237503 -0.2802864
-0.13052076 0.33377048 0.23708926 -0.43173867 0.071149886 -0.19059063 -0.6264775 -0.40476644
-0.13817249 0.560441 -0.042947493 0.25561684 0.4388206 0.005271497 -0.3291782 0.3702991
0.9420064 0.35676992 -0.24170122 0.38460612 0.42866024 0.25509337 0.5066438 0.25223428
-0.24662815 0.19194265 0.22967781 -0.075056784 0.07240106 -0.2811382 0.16806892 -0.49571788
-0.6984845 -0.14667071 -0.48734424 -0.101974644 -0.06356513 0.78637636 -0.45251745 -0.09931043
0.1256635 -0.418157 0.15413885 -0.016045967 0.7941192 0.7635433 -0.098487094 -0.2080988
0.51416194 0.05353863 -0.13248436 -0.10998199 0.112223 0.9101491 -0.2730157 0.1678069
-0.42488283 -0.12239738 0.2398186 0.093827605 -0.09637717 -0.22938147 -0.39888307 -0.33760935
0.22497974 -0.5790182 0.18470037 -0.62008166 1.0498239 0.017443577 0.4413768 0.6544759
-0.057549167 -0.25157374 0.120137684 -0.3205468 -0.06549262 -0.677353 0.74339855 0.2568776
0.1392888 0.24859989 0.6443414 0.72316974 0.028000448 -0.79630333 -0.51082706 -0.032282587
-0.37916133 0.017459074 -0.12781519 -0.09790586 0.11339209 0.2632475 -0.3962637 -0.7253394
0.14211681 0.1952904 -0.64257723 -0.49353692 0.1700777 -0.02515688 -0.09570489 -0.7760842

fc.bias f4 [9]
00000000: ef4e 983d a623 2b3e fc1e 0e3c a49f e9bd
00000010: fecd 0abe 043d 993d 44fb 86bc e4b8 97bd
00000020: a419 0f3d
0.074369304 0.16712818 0.008674379 -0.11407402 -0.13555142 0.07482341 -0.016477235 -0.07408312
0.034936562

onnx::LSTM_120 f4 [1, 256, 10]
00000000: a4ea 7abe 2675 25be 35b6 bfbe 951a abbd
00000010: 40e2 64be a636 c8ba 0cbb 47bd 45c7 3bbe
00000020: 9129 3cbe afca b6be effa 813e 647c adbd
00000030: 34be 593e cdd8 cabe c2d7 6fbe 35de 44be
00000040: f475 a03e 000d cd3e 862d 21bf 59d0 ffbd
00000050: 69d6 b13e abdb dd3d d203 263f c765 753e
00000060: 1053 c4be 9536 7fbe cc88 1a3e 6ff2 683d
00000070: a93b d03d 9149 8dbe 0c6e 243e 0170 b83e
00000080: 52fb efbc 9242 05bf e1f2 51be 5b31 833e
00000090: 6995 b43e 7829 6b3c be13 2d3e 8033 b7bc
000000a0: a20f 9b3d 8c21 d2be f7d4 75be 19a2 533e
000000b0: c6e1 883e 02b0 1a3d 9d49 c1bd e06d febd
000000c0: 4a37 b73d da3c d63d 10f0 d13d 7c67 913e
000000d0: 3ebd a43e b4f6 34bd 3302 3d3f 4aea d8bd
000000e0: 028a cc3d ca98 a73e 663f 363f 7316 a83e
000000f0: e014 f0bc a4da 86be 184f 2a3d 85ab 113d
00000100: 4d59 11be cd98 9e3d 793a 693c 0c20 bbbe
00000110: 2cea 183d ca11 9c3d fe67 0ebd 47a0 863d
00000120: 34ca 02bb dd8b 99be e576 2abd e725 003e
00000130: 8922 84be d3e7 0ebc d533 99bd 2f72 47be
00000140: e69e 1c3c a9e3 ffbd 2c8e 6abf 882d 85be
00000150: 5950 b63e b0e6 8f3e 3525 d8be 36fb b03d
00000160: 8dd6 293e dc90 6cbe 9a71 2e3e 48ce a83d
00000170: 0070 3a3e 6445 b43e 3869 303e bbd5 e2bd
00000180: 9b39 9d3d ee33 3c3d ff26 ca3e b703 d9bd
00000190: 1d70 8b3e 1dda 383d 9eb7 3cbe 7515 813e
000001a0: f6ce cc3d cb25 6c3e 778c 9e3e 84fe 363e
000001b0: 1c02 233e b5a0 27be a375 823e bbf7 fbbd
000001c0: 7661 51bc 9780 ebbe c3f7 9dbd 1268 98be
000001d0: e4aa 163d 0637 f2bb 0115 4f3d f699 7d3e
000001e0: a3f5 54be bd25 8a3d 36be 8a3d 6b15 82be
000001f0: f65f 043e 17b0 cabd a8a8 c4be b451 ea3d
00000200: fa12 17be 40f0 6fbe 5786 e43d e46d 9b3d
00000210: 54dc e63d 32cd c73d db34 9e3e a6c6 dabe
00000220: ed17 3ebd 268b 11be b3af ba3e 1528 2ebe
00000230: 46cc 3ebe 9842 23be 8fa5 07bd 5bc8 22be
00000240: d916 5bbe 5f07 0f3e 2bd9 5ebe 1302 22be
00000250: c77d 94be c2fc 2d3e 809e bcbb 35ef 823d
00000260: 33bc 903e 6b91 a43e 5075 923e 25b7 42bd
00000270: 5508 80be 4f40 663d b4a3 40bd f292 3cbd
00000280: ccf0 833d 9efe b8be d251 8bbc 250d b33e
00000290: fdf6 86be e3e9 323e a850 ba3e cef4 003e
000002a0: a506 033f c4f1 f63d 7c9c 44be cb40 31be
000002b0: 8648 d53d e915 9ebe 7093 d4be 5597 b5bd
000002c0: bb09 16be f2a9 3fbe 964c 14be ce7f 17bd
000002d0: c0fe 553e bbc1 1abe 35e7 d53d fc6c c2bd
000002e0: 3cd6 98bc 6c51 f43d e88e 613e a55e f23d
000002f0: 9400 983d c2c5 dcbc 75ad 863e 99c5 343d
00000300: f75a bcbd 073d c6bd dc9a 6cbd ab76 c9be
00000310: 7daa d5bc a2f2 e5be 1621 b4be bd4d ee3e
00000320: c08a ab3d 11cb 64be f718 b8be df3f 903d
00000330: 9883 053e 14ee c13d 30f8 793e ebb6 013d
00000340: 614b b33e f8f4 e93d 3103 dcbc bc8d c43d
00000350: 8644 503d e356 033e 4ac4 9abd fef2 303e
00000360: 5511 b3be cfdf 0d3e 668b 203e 8d5f 943c
00000370: c387 103e 09d4 fcbd b7cc dcbe 7bbc 0ebe
00000380: 5a80 3f3e 08d4 cd3e 72ea 39be fc57 b13c
00000390: ecd2 0b3f 805f fcbd 1b37 d2bd 9da7 b3be
000003a0: bb6f cfbe 05aa 143e 2f18 1a3e dc1a 313d
000003b0: baa3 603e 9ee3 053f c5a3 0e3f 5731 1f3e
000003c0: a2f9 663e b575 01be cfcf ed3d 065c f1bd
000003d0: b38b 9fbd 1b04 613d 93d6 823e 05f0 0c3e
000003e0: 3b6e 4d3d ab82 1a3e 9de8 1abe c1fe cf3e
000003f0: 96ad 9cbe 2b7b e9be 7181 b4be b367 243f
-0.24503571 -0.1615797 -0.374437 -0.083546795 -0.22351933 -0.0015275076 -0.048762366 -0.18337734
-0.18375231 -0.3570151 0.2538676 -0.08470991 0.21263963 -0.3961853 -0.23422149 -0.1922539
0.3133999 0.4004898 -0.6296009 -0.12490911 0.34733894 0.10832914 0.6484958 0.23964606
-0.38344622 -0.24923165 0.15091246 0.056871828 0.10167629 -0.2759519 0.16057605 0.36022952
-0.029294644 -0.52054703 -0.20502807 0.25623593 0.3527024 0.014353149 0.16902062 -0.022363424
0.07571341 -0.4104122 -0.24007021 0.20667304 0.2673475 0.03776551 -0.09437869 -0.12423301
0.089460924 0.10460825 0.102508664 0.28399265 0.3217563 -0.044180587 0.7383148 -0.10591562
0.099872604 0.32733756 0.7119049 0.32829627 -0.029306829 -0.26338685 0.041579336 0.035563964
-0.14194222 0.07743988 0.014235132 -0.36547887 0.0373327 0.076205805 -0.034767143 0.06573539
-0.0019956948 -0.2998952 -0.041617293 0.12514459 -0.25807598 -0.008722263 -0.07480589 -0.19477151
0.009559369 -0.124945946 -0.9162319 -0.260113 0.35608175 0.28105688 -0.42215887 0.08641665
0.16585751 -0.23102134 0.17035523 0.0824247 0.18206787 0.3520919 0.17227638 -0.11075922
0.07677003 0.04594796 0.39482877 -0.10596412 0.27233973 0.045129884 -0.1842942 0.25211683
0.10000412 0.23061292 0.3096654 0.17870528 0.15918773 -0.16369899 0.25480375 -0.1230311
-0.012779584 -0.45996544 -0.077132724 -0.297669 0.036784068 -0.007391813 0.05055714 0.24765763
-0.20796828 0.06745479 0.06774561 -0.25406966 0.12927231 -0.09896868 -0.38409925 0.11441365
-0.14753333 -0.23431492 0.11158436 0.07589319 0.11272493 0.09755935 0.308997 -0.42729682
-0.046409536 -0.14213237 0.36462173 -0.17007478 -0.18632612 -0.15943372 -0.033116873 -0.15896742
-0.21395434 0.13967656 -0.2176253 -0.15821104 -0.2900221 0.1699095 -0.0057561994 0.06393281
0.28268585 0.32142195 0.28605127 -0.04753794 -0.25006357 0.056213673 -0.04703112 -0.046038575
0.06442413 -0.36131757 -0.017006788 0.34970966 -0.26360312 0.17472033 0.3638966 0.12593386
0.51182014 0.12057832 -0.19200319 -0.17309873 0.104142234 -0.3087609 -0.41518736 -0.08866755
-0.1465215 -0.18717173 -0.1448234 -0.03698712 0.2089796 -0.15112965 0.1044449 -0.09493443
-0.018656842 0.119295925 0.2202717 0.11834458 0.07421985 -0.026949767 0.26304212 0.044133756
-0.09197038 -0.09679609 -0.057764873 -0.3934835 -0.026082272 -0.44911677 -0.35181493 0.46543685
0.08376074 -0.22343089 -0.35956547 0.070434324 0.1303848 0.09469238 0.24411082 0.031668585
0.35018447 0.11423677 -0.02685699 0.09597346 0.0508466 0.12826113 -0.075569704 0.17280194
-0.3497416 0.13854907 0.15678176 0.018111968 0.14114289 -0.1234513 -0.43124935 -0.13939087
0.18701306 0.4020083 -0.1815584 0.0216484 0.54618716 -0.12322903 -0.10264417 -0.35088816
-0.4051493 0.14517982 0.15048288 0.043238506 0.21937457 0.5230044 0.5571864 0.15546165
0.22556165 -0.12642558 0.11611902 -0.1178513 -0.077903174 0.054935556 0.25554332 0.13763435
0.050153952 0.15088908 -0.15127797 0.4062405 -0.30601186 -0.45601782 -0.35255006 0.6422073

onnx::LSTM_121 f4 [1, 256, 64]
00000000: 6cb4 c7bd 9031 a1be 49d2 fd3d 91df eeba
00000010: e067 f3bc c785 3cbe 7fc8 c1bd 5050 343e
00000020: fa21 d8bc 1c75 2f3e bf5b 993e ec2c 2e3e
00000030: 7bdc 4bbe 8a42 8ebe 2f6f 893e 1991 a5be
00000040: 52fa 78be d821 e4be 9126 82ba 0a8e 87be
00000050: be51 71be 605c 5a3e 1e09 c93c 9e23 483e
00000060: 6f00 703e 7838 9e3e 80a4 183e 9b1e a13e
00000070: c02d e9bd bfa4 4a3e 0801 3c3d 7a4a eabd
00000080: caeb 8cbe 267b 3f3d 307b d53d d1cd 8e3e
00000090: c9dc 88be 035f 163e 0975 f9bd 3f4a 6e3e
000000a0: 9454 39bd bbe9 26be 31b6 6b3d 73fe 893e
000000b0: 091f bf3d 9cf0 6f3e def8 15bc 5a7c 953d
000000c0: 1056 023e 5da3 613e 488c 9abe 4ead 403e
000000d0: 22b4 073e 18c6 9dbe b232 543c 87cc 853c
000000e0: 836b b83d ec0f 793e 19a4 413e 4a8a 9e3d
000000f0: 075e 51be 35d1 7dbe d065 283e 86bc 063e
00000100: 6e38 0fbd a3b1 3fbe 4280 883e 5490 1cbe
00000110: 17b2 833d f5d3 39be 484b 2dbe 3344 443e
00000120: 1cfc b83d a477 283e f2d4 b73d dc25 673e
00000130: b465 32be ebfd 6ebe f2aa 313e c123 a1be
00000140: 082b f8bd 3666 63be cff9 1f3d 150b 5abe
00000150: 84eb fbbd cd8a 4f3e 7b59 b0bd b2a9 d73d
00000160: b47e ea3d fb60 3b3e d7e4 d13d 0c76 2a3e
00000170: 2275 8ebc 6a64 d93d 1c6c a03d 3821 92be
00000180: fa66 9ebe 11bf ec3d 0689 0cbe d668 963e
00000190: 5e8d d4bd 0c5e 8d3d 69b5 3dbe 2fa6 353e
000001a0: 2aa7 29bd 12b5 71be 6642 143c 15a8 c03e
000001b0: d66b 2b3e 307c 973e 07d8 b73d 22ea 8f3e
000001c0: c5b0 863e 1971 9b3e 78ee 9abe 9327 6a3e
000001d0: 8af5 983e e78d 81be a338 9e3d 0063 3e3d
000001e0: 8afa 3f3e b365 463e b3d5 353e 6b4b d8bd
000001f0: e4c7 89be ef19 12bd 211e 353d 3f19 123e
00000200: c45e bebc 9dcf 88be cbdf 243e a92d a5bd
00000210: 159c a2bc 35e9 42be 14ac afbd 2c0b 3b3e
00000220: eb5b bebd 2b8d 8f3e cbde 623e 8842 293e
00000230: e95b 7f3d 467a 19be d539 723e 3041 07be
00000240: 8bf4 f4bd 2b96 5dbe 7ee8 0b3e 5ff0 9fbe
00000250: 8ba8 ab3d d685 d83d ffd5 91bd 0845 683e
00000260: 938d 4a3e 8a2c 603e 4344 913e 8e0e 623e
00000270: 16c1 063d cc23 e73d 41b4 3a3d d4a9 b0bd
00000280: 88de 81be c91f 0e3e 98ff df3d 33c5 5f3e
00000290: 01ab a9be e7da c03d 1f21 a3bd abb8 363e
000002a0: 7389 0dbe 18a7 67be 8220 e7bd a9a8 4b3e
000002b0: 72dd bdbc 3ab0 0e3e 236e e1bd f736 103d
000002c0: f8bc d23d 1bba ab3e 3912 68be 41d9 063e
000002d0: 0e05 173e ae16 44be 9c52 3d3d 7eb3 f83d
000002e0: 79ed 8a3e 0e35 0f3e 1259 843e 56aa d83c
000002f0: 2ed9 68be c460 1ebe 4782 3b3e 106a c73d
00000300: cb87 ab3b 6038 96be 218f 463e 97d6 42bd
00000310: 59a5 2cbe e7c9 43be ce3b 2abe f973 223e
00000320: 5807 3bbd d9b5 633e e4de 9c3e fa7a 9f3e
00000330: d8bc 1bbe f2bd b2be 91cd e33d 8ba4 55be
00000340: af67 0fbc ac31 84be de36 273e 52cc 55be
00000350: e23b 50be 7b42 373e 5ae9 7f3d ccc4 c33d
00000360: 6925 223e f8b8 773e 86b4 1c3e 5b69 a33e
00000370: 9aa9 18be a0e1 d83d 90a6 da3d 77f5 f8bd
00000380: 6edf 16be 44f8 813d 4add 01be efa4 403e
00000390: 5fd5 efbd e316 003e 95cd e7bd 0736 c73d
000003a0: 96dc 2dbe 8ade 7cbe eb96 7cbe 9436 323e
000003b0: 03f0 0c3e 54b1 213e 9c11 b23c f09d 313e
000003c0: 07c3 04bc b4f6 6c3e a63a 79be edde 843e
000003d0: 467d 003e 3c7f 8dbe 0d8c 973d 4497 613d
000003e0: 2700 3d3e 664f 8c3e 29cb 943e 479d 40be
000003f0: c40e ccbe c1ac 33be 801c 863e 3f47 213d
-0.097512096 -0.31483126 0.12393624 -0.0018224587 -0.029712617 -0.18410407 -0.0946207 0.17608762
-0.026383389 0.17134517 0.2995281 0.17009324 -0.19908325 -0.2778514 0.2684264 -0.32337263
-0.2431424 -0.4455707 -0.0009929707 -0.26475555 -0.23566338 0.21324301 0.02454048 0.19544837
0.23437665 0.30902457 0.14906502 0.31468663 -0.11385679 0.19789408 0.04589942 -0.114399865
-0.27523643 0.046748303 0.10423887 0.278914 -0.26730946 0.14684682 -0.12180526 0.2327051
-0.045246676 -0.16300099 0.0575468 0.26951942 0.09332091 0.23431629 -0.009153573 0.07299109
0.12728143 0.22034974 -0.3018515 0.1881611 0.13252309 -0.30815196 0.01295154 0.016332878
0.09004881 0.2432248 0.18910255 0.0774122 -0.20446025 -0.24786837 0.16445088 0.13157853
-0.034965925 -0.18720107 0.26660353 -0.15289432 0.06430452 -0.18147261 -0.16923249 0.19166641
0.09032461 0.1645189 0.08976163 0.22573036 -0.17421609 -0.2333905 0.17350367 -0.3147259
-0.121175826 -0.22206959 0.039056595 -0.2129329 -0.123007804 0.20267792 -0.08610817 0.10530414
0.11449948 0.18298714 0.10248726 0.16646594 -0.017389838 0.106148556 0.0783312 -0.2854097
-0.3093794 0.115598805 -0.13724145 0.29376858 -0.10378526 0.06902704 -0.18526234 0.17739175
-0.041419186 -0.23604229 0.009049034 0.37628236 0.16740355 0.29586935 0.08976751 0.28108317
0.2630674 0.30359724 -0.30260062 0.22866659 0.2987483 -0.25303575 0.07725646 0.046481133
0.18747917 0.19374733 0.17757301 -0.1056126 -0.26910317 -0.035669263 0.044218186 0.14267443
-0.023238547 -0.26720896 0.16100995 -0.080653496 -0.019849816 -0.19034274 -0.08577743 0.1826598
-0.09294876 0.2803739 0.22155301 0.16529286 0.06234351 -0.1498805 0.23654874 -0.13208461
-0.11960705 -0.21639316 0.13662907 -0.31238076 0.083817564 0.10572402 -0.07120895 0.22682583
0.19780569 0.2189199 0.28372392 0.22075865 0.032898985 0.112861246 0.04558206 -0.08626142
-0.2536509 0.13879313 0.109374225 0.2185257 -0.33138278 0.09416752 -0.07965302 0.17843883
-0.13821964 -0.22622335 -0.11285497 0.19888557 -0.023176882 0.13934413 -0.11007335 0.03520867
0.10289949 0.33540425 -0.22663201 0.13168813 0.14748022 -0.19149277 0.04622136 0.121436104
0.27134302 0.13985083 0.25849205 0.02644841 -0.22739097 -0.154666 0.18311416 0.09737027
0.0052346936 -0.29339886 0.19390537 -0.04756793 -0.1685995 -0.19119988 -0.16624376 0.15864553
-0.0456613 0.22237338 0.30638802 0.3114851 -0.15208757 -0.34910542 0.11123193 -0.2086355
-0.008752747 -0.25819147 0.16329524 -0.20878723 -0.20335343 0.17896454 0.0624784 0.095590204
0.15834583 0.24191654 0.15303239 0.31916317 -0.14908448 0.105899096 0.106763005 -0.12156194
-0.14733669 0.06346181 -0.12682071 0.18812917 -0.11710619 0.1250873 -0.113185085 0.09727102
-0.16978678 -0.24694267 -0.24666946 0.17403632 0.13763432 0.15790302 0.021736912 0.17345405
-0.008103139 0.23140985 -0.24338779 0.2595133 0.12547788 -0.27636135 0.073997594 0.0550759
0.1845709 0.27404326 0.2906125 -0.18809997 -0.39855015 -0.17546369 0.2619362 0.039374586

onnx::LSTM_122 f4 [1, 512]
00000000: f0ca 9c3e b78c a73e 1845 753e cd8c d03e
00000010: 22b6 063f e522 383e 7be9 7b3e 50c3 433e
00000020: fc82 a73e 5129 993e 1b08 813e 9ad4 8c3e
00000030: 548f 013f 08b4 c83e 036b 9d3e 9918 c73d
00000040: 029d aa3e 42a7 543e 3583 f23e 86b8 9d3e
00000050: a070 b03e 4d38 593e cb5c 043f e76b 743e
00000060: cd58 db3e 1f7c 2b3d fbc9 3b3e 9d9c 2d3e
00000070: f26b 823e e120 d93e 01c4 a83e 2589 f83e
00000080: c0a5 173e b345 293f 6f57 2c3e cb0f 093f
00000090: 00e1 283e 7f0b 0a3e d77f f23c 985a a53e
000000a0: ed6f cd3e 5106 cd3e 96bc 9c3e 4651 df3e
000000b0: e8c3 ce3e c8da b93e a1db ac3e 39ba 3e3e
000000c0: 3196 ab3e 2641 673e 7a19 833e 71b1 243e
000000d0: c41c 963e 9430 7f3e 228a 513e 75a7 573e
000000e0: e3a5 be3e b3e6 0e3f 75f4 e13e 4a7a 1c3d
000000f0: e103 973e 55c8 ac3e 5e60 713e 4d5c cd3e
00000100: d7cc 003f 8bcd 5a3e dfd6 a73e a1bd 5e3e
00000110: 4c74 9e3e 306a 893e f109 1c3e 24fc 6a3d
00000120: 03aa 613e 5e37 8e3d 9dfe 123e a04a 7ebb
00000130: 8bf6 4f3e 13fd a23e 01b4 b03d a65b 183e
00000140: 9376 573e 023c 013e f9d1 e83e 7f88 7d3e
00000150: 243d 7a3e edfb 403e 6736 9f3e 3f04 823e
00000160: aeb6 b63e cdd9 363e 8824 6b3e 00aa 753e
00000170: cc06 4e3e 1b2b 0c3e 33d6 dc3e 99e7 973e
00000180: 2d56 163e 6dea a63e 159f 953e 8725 3d3e
00000190: 253c 203d 3346 7c3e cb51 913e d8cd af3e
000001a0: 1671 813e 778a d33d 9b8f 593e a121 a83e
000001b0: d8d5 aa3e 5d3f 5c3e c26e 4d3e c6b1 373e
000001c0: 0ad0 c73e be6e 643d 50e9 1f3e 7a2f d73d
000001d0: 639f 9f3e 1948 1f3e a698 883e 98c1 103f
000001e0: 5770 ce3e ff0e fd3e f7ed d93e fe18 b33d
000001f0: 404f c33d 6242 343e 37d5 953e b5ac 283e
00000200: afc7 4cbe ffc1 3abd 66d4 b7bd 95f9 32be
00000210: 4eab a0bd ee8d 27be a0b4 353e 2ff2 d63d
00000220: a034 d9bd b9b7 2f3e 3e82 c43d 9791 a2bd
00000230: c142 863c fb34 03be 3a02 85bd 2019 fa3d
00000240: e165 55be e580 a33d cf0c d1bd 6d35 00be
00000250: f7b7 2ebe 2c10 06bd 3b26 75be 1b79 54bd
00000260: ff7d c2bc 2aa1 403d b456 d3bc 5e2b 2abe
00000270: b555 56be 6786 30bd ed1f d1bc 4ee9 82bd
00000280: b91f 22be 1d06 d6bd 182a 29be e557 963c
00000290: 4b3a 90bb 7505 3ebe f355 85bd 30eb 07be
000002a0: 3eef 60bd 0a89 083d 043b 44be 4b2a 34be
000002b0: fb25 09be 7da1 92bc 4578 efbd af1f e93c
000002c0: 921e d0bd a234 bbbc ebc4 eb3d 1f00 ed3d
000002d0: 7da9 ad3b 07e1 32be 00de 0fbe e928 91bd
000002e0: 4bf6 c23d 0db4 a83c 1d8e 8c3c 4449 27be
000002f0: 91eb 2a3d b647 413c 8609 31be 555d 0abe
00000300: afe6 d2bd 38c5 77be ef95 7d3d bd94 e8bd
00000310: c53d 55bd 3b1d 14be 4bbf 27be 23b6 873e
00000320: 731d d7bc b5ad 723e 6ad8 953e bd44 433e
00000330: e0f2 b8bd 7bc5 8cbe 74d7 8b3e 446e 93be
00000340: 5b8a 87bd ac96 99be 54f0 e83d 2ae1 35be
00000350: 9071 d2bd 05bf 563e 3712 873d 9d07 863d
00000360: 9aa1 6d3e b319 443e bc56 703e 39d6 593e
00000370: 1bfd 75bd a7ab 8dbd 95b2 293d 1328 3bbe
00000380: 9d89 c2bc 5ad0 1d3e d152 b2bd 7916 6f3e
00000390: f2d4 24be c96a eb3d 475f 1bbe 6591 363e
000003a0: c938 4abe d251 7abe 9b09 11be d11d c63d
000003b0: 7976 0b3d ff21 8a3e 98a5 503c 04a6 1e3e
000003c0: 3152 f53d 2df4 723e a7c5 97be 8ab7 543e
000003d0: 45da 873e 1966 09be f2f2 41bb 793f 433e
000003e0: 0df1 743d e6b5 2d3e 2331 243e 5c73 d7bd
000003f0: 8e7c aebe 1c72 91bd b5f3 d33d 65d7 4f3e
0.3062358 0.32724544 0.23952138 0.40732422 0.5262166 0.17982061 0.24600784 0.19117475
0.3271712 0.29914334 0.25201496 0.27505952 0.50609326 0.39199853 0.30745706 0.097214885
0.33322912 0.20766929 0.47365728 0.30804843 0.34460926 0.21212883 0.5170409 0.23869286
0.42841187 0.041866418 0.18338768 0.16954274 0.2547298 0.42407897 0.3296204 0.48542133
0.14809322 0.6612198 0.16830228 0.53539723 0.1649208 0.13480948 0.029601974 0.3229568
0.40124455 0.40043882 0.3061263 0.43616694 0.4038384 0.3629973 0.33761314 0.18625726
0.33513024 0.22583446 0.25605375 0.16083314 0.2931882 0.24920875 0.2046285 0.21059974
0.37235937 0.5582077 0.44131818 0.03820256 0.29495147 0.3374659 0.23571917 0.40109482
0.5031256 0.21367471 0.3278112 0.21752025 0.30948102 0.26838827 0.15238167 0.057369366
0.2203751 0.06944154 0.1435494 -0.0038801804 0.20308892 0.31833705 0.08628083 0.14878711
0.21041326 0.12620547 0.45472696 0.247591 0.24437386 0.18846102 0.31096193 0.25393865
0.3568625 0.17856522 0.22963154 0.23990631 0.2011978 0.13688318 0.4313217 0.29668882
0.14681311 0.32600728 0.29222932 0.18471347 0.03911986 0.24636154 0.28382716 0.34336734
0.2528159 0.103291444 0.21246187 0.32838157 0.33366275 0.21508546 0.20061782 0.17938909
0.3902591 0.055769674 0.15616345 0.10507102 0.3117629 0.15554847 0.26678962 0.565454
0.40320083 0.49425504 0.42564365 0.08745001 0.095366 0.17603448 0.29264233 0.16472133
-0.19998048 -0.045595165 -0.08976059 -0.1747802 -0.07845174 -0.16362736 0.17744684 0.104954116
-0.106057405 0.17159928 0.09595154 -0.07937925 0.016389253 -0.12813179 -0.06494565 0.122118235
-0.20839645 0.07983569 -0.10207521 -0.1252038 -0.17062365 -0.032730266 -0.23940365 -0.051873308
-0.02374172 0.047028698 -0.02579818 -0.16618106 -0.20931132 -0.043096926 -0.025527919 -0.063921556
-0.15832414 -0.10450385 -0.16519964 0.018352458 -0.0044014803 -0.18556769 -0.06510534 -0.1327331
-0.05491566 0.033333816 -0.19163138 -0.17594258 -0.13393395 -0.01789927 -0.116928615 0.02845749
-0.10162081 -0.022852246 0.115121685 0.11572289 0.0052997456 -0.17468654 -0.1404953 -0.07087881
0.09519633 0.020593667 0.017157609 -0.16336542 0.04172856 0.011796882 -0.17288789 -0.13512166
-0.10297906 -0.24196327 0.061910566 -0.113564946 -0.05206086 -0.14464276 -0.16381566 0.26506147
-0.02625916 0.23699076 0.29266673 0.1906919 -0.090307 -0.27494416 0.27312815 -0.28795063
-0.06618186 -0.29997766 0.11373964 -0.17761675 -0.102755666 0.20971306 0.06595271 0.06544421
0.23206177 0.19150428 0.23470587 0.21273126 -0.060055833 -0.06917506 0.041430075 -0.18277006
-0.02374726 0.15411511 -0.08707202 0.23348416 -0.16096857 0.11494977 -0.15173064 0.17828901
-0.19748224 -0.24445274 -0.1416382 0.09673656 0.03404853 0.26979062 0.012734793 0.15493017
0.119785674 0.23725958 -0.29642984 0.2077314 0.26533714 -0.13417853 -0.002959427 0.19067182
0.059800196 0.1696392 0.16034369 -0.1052005 -0.34079403 -0.07101843 0.10349218 0.2029701
